Section 8/reinforce_policy.pth (torch, 75362 bytes, 6 tensors)

fc1.weight f4 [128, 8]
-0.3447173 0.035687234 -0.43086144 0.22532985 0.092151366 -0.063127786 -0.11052702 0.059226323
0.060858354 -0.09793578 -0.08289399 -0.47622967 -0.17401405 0.44415337 0.20727581 -0.33271804
-0.020871833 0.14028314 0.36220977 0.17216466 -0.07862309 -0.07340198 0.42094553 -0.19544272
0.14857335 -0.147349 -0.052024443 0.13306397 0.14468358 0.3545326 0.38431537 0.0032450743
0.39341894 0.1878271 0.16829543 -0.079294406 -0.4820272 0.16980201 -0.20426762 0.28630552
0.21718138 -0.24109158 0.35748243 -0.22490816 -0.42921346 -0.17411888 0.281108 0.205553
0.04395485 -0.21233782 0.08786539 0.4894483 0.18086983 -0.18223503 0.12523022 0.22672942
-0.39023495 0.18924274 -0.14998336 0.075838365 -0.10169034 0.42876077 0.19363749 0.02132591
0.21850793 -0.1743326 -0.33381855 0.1611117 0.22175297 0.29174837 0.2979049 0.27067655
0.1561203 0.10370334 0.21578088 -0.19523458 0.26223248 -0.1858931 0.03390907 0.106020704
0.086526506 -0.26342312 0.3949584 0.0715287 0.22234651 -0.1381849 -0.34691188 0.31559983
-0.25428972 0.30280414 0.33414853 -0.3327761 -0.37950796 0.27123317 0.073334545 0.25329423
-0.021775926 0.26980102 0.11409949 -0.0076821465 -0.51246583 0.12940763 0.22799787 0.30975285
0.24911751 -0.12293332 0.18991555 0.18891838 -0.41974312 -0.1833037 -0.057331927 0.06533878
-0.3342983 0.37602425 -0.20331994 0.055154484 0.39563352 0.16718662 -0.019450486 -0.013255844
0.36255464 0.27680874 0.24415189 0.21322718 -0.3091649 0.0042656986 -0.06109901 -0.08140519
-0.06772471 0.23010312 0.39441174 0.16095617 -0.25983775 0.18362013 0.046989832 0.3211701
-0.1575659 0.27244356 -0.26508647 -0.2514743 0.19546597 -0.12759243 -0.073316455 0.29052153
0.29945347 -0.092574805 -0.28255278 -0.25435957 0.31586957 -0.16465081 -0.24070527 -0.108744815
-0.2245997 -0.2823822 0.024094824 -0.056218352 0.09024408 0.30215606 0.32245216 0.36077484
-0.29180604 0.29402682 -0.016855616 -0.3640575 0.33153996 -0.0150844045 0.29082808 -0.2795885
-0.033343747 -0.29245198 -0.32369524 -0.27854052 0.123035654 0.06307508 -0.047171198 -0.04653433
-0.18492846 0.102339685 -0.016197493 -0.47223592 -0.0019143191 -0.43000272 0.10349286 -0.0035562455
-0.24476974 0.17848185 -0.17510135 0.119305216 0.47298038 0.15471345 0.112673715 0.3892305
-0.039943017 0.2451421 0.30221984 -0.076217346 -0.4439052 0.0568996 0.008087861 0.03383211
0.23289311 0.28013673 -0.2762495 0.052620668 0.08469609 0.18098216 0.31758985 -0.075364046
0.22810203 -0.11310774 -0.023216542 -0.2542649 -0.2982245 0.124187626 0.13381955 -0.05571616
-0.2921835 0.23311417 0.06434054 0.34032926 -0.24284196 0.15371227 0.2378158 0.1791249
-0.11199417 -0.14285362 -0.27834243 0.07484339 0.13552669 0.02885519 -0.3403852 -0.078512475
0.2158418 -0.13401157 0.16474438 -0.3551196 0.28182465 0.44440037 0.3193345 -0.036357615
-0.009787306 0.13013777 -0.033753555 0.055742458 0.2536356 0.26166612 -0.10957958 0.2066245
-0.19524084 0.3360065 0.20817433 0.19494267 -0.27016884 -0.051134612 0.4201998 -0.26091155
00000000: c97e b0be c72c 123d df99 dcbe debc 663e
00000010: dbb9 bc3d 2449 81bd fe5b e2bd 4d97 723d
00000020: 9c46 793d 8e92 c8bd 53c4 a9bd 60d4 f3be
00000030: bd30 32be 1268 e33e 1c40 543e 055a aabe
00000040: 68fb aabc 62a6 0f3e 8f73 b93e ef4b 303e
00000050: 2505 a1bd c753 96bd 2c86 d73e 2322 48be
00000060: 9d23 183e a8e2 16be 9517 55bd ec41 083e
00000070: ef27 143e 4c85 b53e fcc4 c43e 50ab 543b
00000080: 356e c93e bf55 403e a355 2c3e 1b65 a2bd
00000090: 45cc f6be 94e0 2d3e 882b 51be a396 923e
000000a0: cc64 5e3e b6e0 76be f007 b73e 534e 66be
000000b0: dec1 dbbe 384c 32be 63ed 8f3e 7c7c 523e
000000c0: 000a 343d 166f 59be c5f2 b33d f898 fa3e
000000d0: f135 393e d29b 3abe 5a3c 003e c22b 683e
000000e0: e0cc c7be d9c8 413e 3d95 19be 2551 9b3d
000000f0: 0643 d0bd 8886 db3e e848 463e adb3 ae3c
00000100: 8bc0 5f3e 3f84 32be 44ea aabe 77fa 243e
00000110: 3613 633e 0b60 953e fe86 983e 1e96 8a3e
00000120: 00de 1f3e 6b62 d43d aaf5 5c3e 93eb 47be
00000130: 5643 863e c35a 3ebe 3de4 0a3d 6221 d93d
00000140: cf34 b13d 65df 86be fd37 ca3e a47d 923d
00000150: ceae 633e 5880 0dbe 6f9e b1be 4d96 a13e
00000160: 4332 82be 2509 9b3e 8415 ab3e a161 aabe
00000170: de4e c2be 13df 8a3e 6c30 963d c8af 813e
00000180: 6d63 b2bc 5c23 8a3e feac e93d 84ba fbbb
00000190: f630 03bf 6f83 043e 4678 693e ed97 9e3e
000001a0: a918 7f3e 77c4 fbbd 3979 423e d273 413e
000001b0: 92e8 d6be f7b3 3bbe e2d4 6abd 57d0 853d
000001c0: 2629 abbe 4086 c03e 1a33 50be abe9 613d
000001d0: 7a90 ca3e f832 2b3e a056 9fbc 0a2f 59bc
000001e0: c3a0 b93e e0b9 8d3e f402 7a3e 3a58 5a3e
000001f0: dd4a 9ebe 46c7 8b3b f542 7abd c4b7 a6bd
00000200: 41b3 8abd 27a0 6b3e 56f0 c93e b2d1 243e
00000210: 7409 85be ea06 3c3e 6978 403d 6870 a43e
00000220: f558 21be b97d 8b3e 6ab9 87be 3dc1 80be
00000230: 3b28 483e 97a7 02be f026 96bd 3dbf 943e
00000240: f751 993e dc97 bdbd c2aa 90be 6b3b 82be
00000250: a8b9 a13e 399a 28be 717b 76be 9ab5 debd
00000260: 77fd 65be 6694 90be 8262 c53c 3745 66bd
00000270: e3d1 b83d 33b4 9a3e 7318 a53e 7bb7 b83e
00000280: 9a67 95be af8a 963e ca14 8abc bf65 babe
00000290: 9bbf a93e 9424 77bc 6be7 943e 3926 8fbe
000002a0: 7493 08bd 44bc 95be 62bb a5be dd9c 8ebe
000002b0: 1efa fb3d 822d 813d 9636 41bd c89a 3ebd
000002c0: e35d 3dbe 7897 d13d 9bb0 84bc e8c8 f1be
000002d0: e4e9 faba 5129 dcbe 11f4 d33d e60f 69bb
000002e0: eba4 7abe f2c3 363e c54d 33be 4b56 f43d
000002f0: 7c2a f23e 346d 1e3e 7ac1 e63d 3849 c73e
00000300: 4a9b 23bd 8806 7b3e 8fbc 9a3e d717 9cbd
00000310: 8b47 e3be 8e0f 693d f382 043c 8a93 0a3d
00000320: 887b 6e3e 156e 8f3e 9370 8dbe c588 573d
00000330: 2575 ad3d 6353 393e 239b a23e 7758 9abd
00000340: 9493 693e 08a5 e7bd 9e30 bebc 022f 82be
00000350: e2b0 98be 1556 fe3d fe07 093e a136 64bd
00000360: 1399 95be 7bb5 6e3e f9c4 833d a33f ae3e
00000370: 90ab 78be c066 1d3e fc85 733e 856c 373e
00000380: 335d e5bd 3848 12be e682 8ebe 7e47 993d
00000390: 82c7 0a3e b861 ec3c f846 aebe 26cb a0bd
000003a0: a205 5d3e 543a 09be c0b2 283e 3cd2 b5be
000003b0: 524b 903e 7288 e33e d07f a33e b9eb 14bd
000003c0: f05a 20bc d642 053e 2b41 0abd 3452 643d
000003d0: 86dc 813e 1af9 853e 426b e0bd 5f95 533e
000003e0: 37ed 47be 0b09 ac3e a72b 553e 0d9f 473e
000003f0: 9253 8abe 8772 51bd 6e24 d73e 3396 85be

fc1.bias f4 [128]
0.12650807 0.11785444 0.16006672 -0.2576384 0.18840696 -0.28807974 0.26280338 0.074619286
-0.29461613 0.15288423 0.03636356 -0.08660181 -0.013302061 0.26252794 -0.1334768 0.13478139
0.30698135 -0.17321287 0.21810873 -0.24476466 -0.27650186 -0.25645685 -0.09302638 0.032704458
-0.21157277 -0.14853041 0.12230031 0.054501582 -1.73609e-05 -0.22525463 -0.21286319 0.19990905
-0.34926966 0.13866578 0.07223213 -0.055419512 0.02899182 -0.26341245 0.29120687 -0.028382037
-0.29993176 0.011948197 -0.058834933 0.44211578 0.09343862 0.028020255 0.03915813 -0.047857326
0.06404088 0.15426223 -0.09802941 -0.08512008 -0.26097262 0.24843855 0.08912703 0.04031543
0.101254545 0.15878466 -0.039444588 -0.010239926 -0.016259206 -0.12431559 0.023391947 0.19814569
0.21716237 0.14122458 -0.24878164 -0.056727134 -0.12517612 0.3085551 -0.19950563 -0.3153598
0.21302342 -0.24534597 0.40950644 -0.083728544 0.17389414 -0.32926896 0.2944139 0.096929334
0.11100375 0.28259888 0.21199693 0.2815879 -0.15666212 -0.09358494 0.16670808 -0.2873266
0.12537134 -0.21499136 -0.042037815 0.28203878 -0.1384278 0.15991636 0.15449983 -0.03009541
-0.14837158 0.011889525 0.009389262 -0.14838305 0.09420541 -0.19501519 0.115131624 0.09852184
0.2912 0.29112905 0.28986725 0.064389914 -0.2679165 0.014406454 0.13500305 0.274676
0.0058381623 0.09396082 -0.08506746 0.038704578 -0.12105324 -0.10465671 -0.11733061 0.082258485
0.26737854 0.22723448 0.33416426 0.24630389 -0.21305105 -0.26487914 -0.20280242 0.36937195
00000000: 558b 013e ab5d f13d 88e8 233e 2ee9 83be
00000010: c1ed 403e 307f 93be 2a8e 863e ffd1 983d
00000020: edd7 96be af8d 1c3e f5f1 143d 4a5c b1bd
00000030: e3f0 59bc 106a 863e 24ae 08be 2204 0a3e
00000040: a92c 9d3e b75e 31be e557 5f3e 96a3 7abe
00000050: a791 8dbe 504e 83be 9d84 bebd 1cf5 053d
00000060: 88a6 58be 5b18 18be 9678 fa3d 0d3d 5f3d
00000070: 40a2 91b7 26a9 66be cff8 59be f5b4 4c3e
00000080: 79d3 b2be 67fe 0d3e 70ee 933d 92ff 62bd
00000090: 4180 ed3c ffdd 86be 1119 953e 7281 e8bc
000000a0: a890 99be 5fc2 433c e6fc 70bd 005d e23e
000000b0: bf5c bf3d bc8a e53c 4664 203d 0b06 44bd
000000c0: dd27 833d ebf6 1d3e a5c3 c8bd 7053 aebd
000000d0: 349e 85be ad66 7e3e 3b88 b63d cb21 253d
000000e0: 8b5e cf3d 7298 223e a690 21bd 5dc5 27bc
000000f0: 0732 85bc 2c99 febd 78a0 bf3c b4e6 4a3e
00000100: d05f 5e3e 2d9d 103e 9dc0 7ebe b65a 68bd
00000110: 2b2e 00be effa 9d3e 344b 4cbe d776 a1be
00000120: d022 5a3e f93b 7bbe d4aa d13e df79 abbd
00000130: 4e11 323e f195 a8be 6bbd 963e e382 c63d
00000140: ef55 e33d cdb0 903e b915 593e 4a2c 903e
00000150: 096c 20be 76a9 bfbd 86b5 2a3e 791c 93be
00000160: 5861 003e b226 5cbe d82f 2cbd 6367 903e
00000170: 04c0 0dbe 1dc1 233e 3435 1e3e a68a f6bc
00000180: b8ee 17be 48cc 423c 6bd5 193c baf1 17be
00000190: c4ee c03d 10b2 47be 21ca eb3d d2c5 c93d
000001a0: 2b18 953e de0e 953e 7b69 943e dcde 833d
000001b0: 5a2c 89be 0c09 6c3c 3d3e 0a3e 55a2 8c3e
000001c0: 0e4e bf3b 886e c03d d937 aebd b188 1e3d
000001d0: c3ea f7bd 4256 d6bd 084b f0bd 2377 a83d
000001e0: d7e5 883e 28b0 683e 9417 ab3e 1637 7c3e
000001f0: 0e2a 5abe 3d9e 87be 70ab 4fbe 521e bd3e

fc2.weight f4 [128, 128]
-0.018841822 0.05219347 -0.10311673 -0.0045839353 -0.04551826 -0.085731186 0.015876813 -0.024030693
-0.022986686 0.00037696311 -0.0034950932 0.00053190335 -0.046748858 0.012743818 0.06035453 -0.098773494
0.023218442 -0.031989142 0.0807406 -0.019808058 0.08389673 -0.06753958 0.014546257 0.015215824
-0.14322835 0.0042760186 -0.00907414 -0.098788835 -0.070686035 0.07942593 0.041952327 0.040688064
-0.001773209 -0.03598104 0.010587423 0.05217014 0.107771076 -0.065478526 -0.01312623 0.094371356
-0.061464343 -0.12931934 0.045181647 -0.08871542 -0.06287933 0.23450336 0.19049375 -0.012370643
0.030510524 -0.11640229 0.1759146 0.05816058 0.07591402 0.16867417 0.1567411 0.15131538
-0.096474 0.07420478 -0.100357614 0.09290221 0.04437828 -0.050321817 -0.054552503 0.0022551843
-0.0246168 -0.05365435 -0.028496277 0.097746596 0.039256874 0.039123587 0.10530642 0.080358736
-0.019270018 0.0882595 0.10438722 0.03817844 0.019554839 0.09537391 0.08875866 0.074693464
0.21047214 0.11760839 -0.013056582 -0.056922946 0.03440845 0.08738963 0.048924536 0.0047241454
0.10631909 0.016109308 -0.00076615013 -0.023247203 0.0541923 -0.021175144 -0.04367667 0.10147795
0.13649607 -0.05668383 0.09378171 -0.04704706 0.013470232 -0.1368076 -0.048759203 -0.00742291
0.030069346 -0.1295856 -0.028755365 -0.049088433 -0.019484181 -0.06650519 -0.042190604 0.053970274
0.054799777 0.08518104 0.117590606 0.10149312 -0.0053148605 0.044210576 0.16504496 0.12733056
0.011698111 -0.03312868 -0.07512075 0.009346264 -0.06886362 -0.08152524 0.039498344 0.123039365
0.001987108 0.04291957 -0.021273255 -0.025988422 -0.056089837 0.057561804 -0.01173812 -0.057798594
0.017880945 0.029590316 -0.0051419996 -0.05111458 -0.05909927 -0.08224968 0.0028044512 0.084740855
0.029382698 0.014737604 0.014236625 -0.014202213 0.001447386 0.05923755 0.08340873 0.031030374
-0.013637076 0.08211442 -0.078666486 0.08264017 -0.046110865 0.040333048 -0.0730011 -0.079786286
-0.011303784 -0.017602136 0.05239786 0.08521957 -0.053348593 0.029488549 -0.027214317 0.023235397
-0.0035122337 -0.031527277 -0.010544014 0.047492597 -0.026357746 -0.00018009824 -0.029737847 -0.040271986
-0.0020956297 -0.05561205 0.020104183 0.028160814 0.014337007 0.008474024 0.040531643 -0.066409096
-0.01030874 -0.028530393 -0.0554658 0.034482148 0.025034806 -0.082170494 -0.08818942 0.08201719
0.03132866 -0.07940404 -0.07440138 -0.029319616 0.049389783 -0.009573036 0.028980363 0.028867915
-0.051730525 -0.042268235 -0.01705523 -0.007991327 0.056800064 -0.014819896 -0.050757196 -0.019163879
-0.08873872 -0.009743782 0.076636024 -0.03215627 -0.084839836 0.08831045 0.052165754 -0.03747489
-0.02380156 -0.041714747 -0.055464737 0.00055110146 -0.026484702 -0.07252314 -0.088543415 -0.0247357
0.038153287 -0.08676763 0.061739095 -0.004692493 -0.017592559 -0.012799524 -0.06860357 -0.0303029
0.008285322 0.06283647 0.009924107 0.045178838 -0.07612629 -0.08054068 -0.00068868394 -0.03479315
0.027717263 0.022115968 -0.026533866 0.06464022 0.020620598 -0.017619861 -0.03970624 0.00844567
-0.059100766 -0.056714885 0.0031483239 -0.03505367 -0.017431082 0.04824401 -0.08127566 -0.05859352
00000000: 2a5a 9abc d2c8 553d dd2e d3bd d634 96bb
00000010: 5b71 3abd d593 afbd 1710 823c 04dc c4bc
00000020: 934e bcbc 22a3 c539 ef0d 65bb 6e6f 0b3a
00000030: bb7b 3fbd 72cb 503c 5036 773d c249 cabd
00000040: 9a34 be3c 0c07 03bd 545b a53d 8244 a2bc
00000050: 0cd2 ab3d 3152 8abd 6d53 6e3c cb4b 793c
00000060: 74aa 12be d81d 8c3b b4ab 14bc cd51 cabd
00000070: d7c3 90bd 10aa a23d 34d6 2b3d 87a8 263d
00000080: 056b e8ba db60 13bd df76 2d3c 5bb0 553d
00000090: 15b7 dc3d 9b19 86bd 660f 57bc c545 c13d
000000a0: 09c2 7bbd 4a6c 04be 6410 393d 6eb0 b5bd
000000b0: e1c6 80bd a621 703e cb10 433e 3dae 4abc
000000c0: 35f1 f93c 5364 eebd f522 343e ca39 6e3d
000000d0: cf78 9b3d ecb8 2c3e bd80 203e 6bf2 1a3e
000000e0: 2994 c5bd adf8 973d 4b88 cdbd 8443 be3d
000000f0: 00c6 353d 401e 4ebd 7272 5fbd b7cb 133b
00000100: 2ca9 c9bc aac4 5bbd 0671 e9bc 5e2f c83d
00000110: d1cb 203d 0e40 203d e4aa d73d 1f93 a43d
00000120: 28dc 9dbc 66c1 b43d f8c8 d53d ff60 1c3d
00000130: 7831 a03c 6653 c33d 1ac7 b53d e3f8 983d
00000140: 0286 573e abdc f03d 46eb 55bc 0928 69bd
00000150: e0ef 0c3d 56f9 b23d 1865 483d 01cd 9a3b
00000160: d3bd d93d abf7 833c 77d7 48ba eb70 bebc
00000170: bff8 5d3d 7f77 adbc 4fe6 32bd acd3 cf3d
00000180: a0c5 0b3e 4e2d 68bd a010 c03d 6bb4 40bd
00000190: 3fb2 5c3c 4b17 0cbe bbb7 47bd e23b f3bb
000001a0: fd53 f63c 16b2 04be 5f90 ebbc f410 49bd
000001b0: 4a9d 9fbc e033 88bd 0ed0 2cbd ef0f 5d3d
000001c0: bb75 603d 6673 ae3d 58d3 f03d a0db cf3d
000001d0: 4828 aebb 2616 353d 8c01 293e f162 023e
000001e0: 6fa9 3f3c f0b1 07bd e8d8 99bd 1321 193c
000001f0: 5f08 8dbd b4f6 a6bd 04c9 213d 10fc fb3d
00000200: 243a 023b 6ecc 2f3d 4045 aebc ace5 d4bc
00000210: 75be 65bd edc5 6b3d 3e51 40bc 38be 6cbd
00000220: 0f7b 923c 6467 f23c 387e a8bb 865d 51bd
00000230: 1312 72bd 8572 a8bd e2ca 373b 9d8c ad3d
00000240: fcb3 f03c fe75 713c bc40 693c 66b0 68bc
00000250: 37b6 bd3a 13a3 723d 32d2 aa3d 6933 fe3c
00000260: 0b6e 5fbc 9b2b a83d e51b a1bd 403f a93d
00000270: bfde 3cbd 4434 253d 9a81 95bd fe66 a3bd
00000280: 8233 39bc 5b32 90bc 239f 563d 9987 ae3d
00000290: 0e84 5abd f891 f13c 8ff0 debc 2958 be3c
000002a0: 812d 66bb bf22 01bd cdc0 2cbc 9987 423d
000002b0: 33ec d7bc c1d8 3cb9 c99c f3bc 3df4 24bd
000002c0: d556 09bb 76c9 63bd 87b1 a43c 82b1 e63c
000002d0: c4e5 6a3c a2d6 0a3c 8204 263d 7e01 88bd
000002e0: fde5 28bc 92b8 e9bc 1b30 63bd 273d 0d3d
000002f0: cb15 cd3c 0149 a8bd a89c b4bd a1f8 a73d
00000300: 7b52 003d 969e a2bd c05f 98bd b12f f0bc
00000310: f14c 4a3d 39d8 1cbc 3a68 ed3c 687c ec3c
00000320: 63e3 53bd 7521 2dbd 69b7 8bbc 0eee 02bc
00000330: 2fa7 683d 26cf 72bc c7e6 4fbd 91fd 9cbc
00000340: a5bc b5bd 62a4 1fbc 59f3 9c3d 4bb6 03bd
00000350: 82c0 adbd 1cdc b43d c2ab 553d 457f 19bd
00000360: 7dfb c2bc 15dd 2abd fe2e 63bd cb77 103a
00000370: 72f6 d8bc 0387 94bd 4056 b5bd 86a2 cabc
00000380: 9f46 1c3d 3ab3 b1bd 22e2 7c3d 7cc3 99bb
00000390: 451e 90bc 18b5 51bc 0780 8cbd ca3d f8bc
000003a0: 29bf 073c 68b0 803d b998 223c 720d 393d
000003b0: 1ae8 9bbd 83f2 a4bd cc88 34ba 4383 0ebd
000003c0: 500f e33c 8c2c b53c 8d5d d9bc 1762 843d
000003d0: 87ec a83c 8757 90bc 03a3 22bd b55f 0a3c
000003e0: a513 72bd de4d 68bd 1c54 4e3b 7094 0fbd
000003f0: a1cb 8ebc 839b 453d da73 a6bd c2ff 6fbd

fc2.bias f4 [128]
0.11857285 -0.010990319 -0.0088242125 0.013502362 0.052179974 -0.015848702 0.007508442 0.059458602
-0.021578413 0.012350465 -0.034545854 0.038405664 0.07668839 0.11558422 -0.044467065 -0.04172312
-0.076164275 -0.010553442 0.011531287 0.020341754 0.06525404 -0.0001466694 -0.03935287 0.019754993
-0.023070443 0.057309385 0.050513577 0.09358248 0.09024721 0.04851582 -0.043731287 -0.027341627
0.058774423 -0.07921642 -0.0681599 0.053461045 0.005541639 -0.058028113 -0.013722055 0.0738818
0.10420866 -0.055898882 -0.022476185 -0.05704071 0.04153483 -0.059416126 -0.052280217 -0.09729569
0.0325976 0.024425108 0.042266697 0.037018787 -0.041719556 0.03137472 -0.07582324 0.014557476
0.02947148 -0.09767632 0.014955603 0.024739092 0.022193477 -0.013790801 -0.060345884 0.058648765
0.05780031 0.04198637 0.06026659 0.062199697 -0.03930202 -0.043864835 -0.03275809 0.03444821
-0.053773355 0.08115465 0.034129735 0.08588677 0.06810108 -0.021557126 0.076105796 -0.08425985
-0.04116686 0.06022897 -0.008230091 0.035192475 0.0036699336 0.032688223 0.047716998 0.04251566
-0.0033105987 -0.05608755 -0.012308867 0.036073014 -0.07790342 0.08648036 -0.080275044 0.033571087
0.08121755 -0.015593437 0.052788313 0.07064296 0.0095339855 0.0901138 0.07110824 -0.037752137
-0.076871276 0.050350696 0.00543121 0.05042357 -0.096023805 -0.07398127 -0.094151795 0.04948537
0.0057169655 -0.018378753 -0.087891944 -0.07322583 0.12025892 -0.03342975 -0.021365564 0.07909726
-0.015205519 -0.03437332 0.11316464 0.008726689 0.029785804 0.017601285 -0.0733297 0.048219137
00000000: 53d6 f23d bd10 34bc 6e93 10bc 0339 5d3c
00000010: abba 553d 23d5 81bc 6009 f63b dd8a 733d
00000020: 36c5 b0bc 9b59 4a3c f47f 0dbd 424f 1d3d
00000030: cd0e 9d3d 6bb7 ec3d 1923 36bd dde5 2abd
00000040: 04fc 9bbd 58e8 2cbc b9ed 3c3c c0a3 a63c
00000050: e9a3 853d 44cb 19b9 7a30 21bd 39d5 a13c
00000060: 3afe bcbc 3fbd 6a3d 53e7 4e3d 2ca8 bf3d
00000070: 87d3 b83d 86b8 463d 941f 33bd 8cfb dfbc
00000080: 73bd 703d 383c a2bd 6b97 8bbd f8f9 5a3d
00000090: a396 b53b e3ae 6dbd 78d2 60bc 574f 973d
000000a0: 5a6b d53d 3af6 64bd fa1f b8bc 85a3 69bd
000000b0: 6d20 2a3d 535e 73bd c823 56bd f642 c7bd
000000c0: 1085 053d 2a17 c83c d81f 2d3d 03a1 173d
000000d0: 20e2 2abd c782 003d 3749 9bbd 7b82 6e3c
000000e0: 2c6e f13c 860a c8bd 5808 753c a3a9 ca3c
000000f0: 18cf b53c d0f2 61bc 3f2d 77bd b039 703d
00000100: 05c0 6c3d e6f9 2b3d 1ada 763d 1cc5 7e3d
00000110: 28fb 20bd 9dab 33bd 592d 06bd 9119 0d3d
00000120: 7341 5cbd 6934 a63d 9fcb 0b3d 67e5 af3d
00000130: 9478 8b3d 9298 b0bc 5bdd 9b3d 6e90 acbd
00000140: 959e 28bd a7b2 763d 81d7 06bc fc25 103d
00000150: 4583 703b 16e4 053d e672 433d e724 2e3d
00000160: a1f6 58bb 0fbc 65bd 21ab 49bc 4cc1 133d
00000170: d48b 9fbd 9d1c b13d 3e67 a4bd d681 093d
00000180: 6355 a63d 9d7b 7fbc 8f38 583d 42ad 903d
00000190: 6f34 1c3c 958d b83d 32a1 913d fca1 1abd
000001a0: b06e 9dbd 883c 4e3d 4bf8 b13b f288 4e3d
000001b0: 21a8 c4bd 7e83 97bd a8d2 c0bd 2cb1 4a3d
000001c0: 6255 bb3b 0a8f 96bc b100 b4bd 6df7 95bd
000001d0: 4f4a f63d a2ed 08bd d606 afbc bffd a13d
000001e0: 9220 79bc 0acb 0cbd ddc2 e73d 63fa 0e3c
000001f0: 5c01 f43c 9230 903c e22d 96bd 6e81 453d

fc3.weight f4 [4, 128]
-0.008612904 0.043065123 -0.02081221 -0.0036101397 0.042562816 0.04169839 -0.060442984 -0.06620353
0.07385948 0.032082986 -0.073327005 -0.07258527 -0.12079847 0.05555377 -0.041486535 0.051047668
0.021722317 0.047470983 -0.04097024 0.026376063 -0.17110573 -0.047858875 0.02805286 0.056015033
0.040266085 0.058768936 0.026997183 -0.1364642 0.04373085 0.04136447 -0.046627443 0.023470644
0.027705349 -0.005520739 0.037414815 0.0015776132 0.081176385 0.09523134 -0.0017181913 -0.081159554
-0.070794106 0.07495163 0.032315712 0.078854695 -0.036298256 0.004617213 0.043541744 -0.036788315
-0.15162925 -0.025342012 -0.047129616 0.061671704 0.03799403 -0.02686036 -0.029150043 0.035277538
-0.04203945 0.05859141 -0.013630958 -0.09612134 0.061549142 -0.10133066 0.052947927 -0.07448075
-0.11174772 -0.1100641 0.009658126 0.060035404 0.059884124 0.06916848 -0.08164011 0.03191786
-0.10545576 -0.09960748 -0.06008704 -0.058971986 -0.05062232 0.03658375 -0.06147812 -0.003655641
-0.041816972 -0.09893478 -0.11113083 -0.09632051 -0.017682284 0.0845633 -0.032420225 -0.12590918
-0.037240602 -0.0063864775 0.07180531 0.07678584 0.06957347 -0.033478115 0.025597835 0.023041323
-0.023605935 -0.0026082343 -0.07914546 0.09684276 -0.107275166 0.052784547 0.039609093 0.033483908
0.021578118 -0.087965414 0.014858749 -0.013120487 -0.045670234 -0.11699318 0.036745977 0.06500122
-0.035954297 -0.037787713 0.043697286 0.029739933 -0.029430779 -0.06906083 0.049712002 -0.025140798
-0.055708043 0.036498424 -0.11785278 -0.02847478 -0.108156495 -0.031419113 0.08471148 -0.08107461
-0.119549565 -0.083640836 0.12867844 0.07997494 0.0018734524 0.06582592 0.14475599 0.015248699
0.035180826 -0.036337696 -0.17299193 -0.046168502 0.10860207 -0.2050765 -0.043761786 0.2281377
0.008998845 0.1512901 -0.01960115 0.04198136 0.08649733 -0.014509585 0.13814646 -0.107419826
0.1297719 0.06742979 0.10359633 0.0053867116 0.01040732 0.0587265 0.05524986 -0.14759955
0.1660926 -0.061269958 0.14617936 -0.15591282 0.07314818 0.030648474 0.040273506 0.13077831
-0.15047151 -0.0733842 -0.0033045372 -0.09518741 0.07295469 0.07996539 0.0023401587 -0.063351244
-0.09999721 -0.0024530988 -0.1199182 0.16753918 -0.0064928243 -0.031755455 -0.07487277 -0.14432885
0.050418846 -0.0121595375 0.19412592 -0.11063317 -0.112838544 0.07287528 0.037047364 0.095390394
-0.032601308 0.18068911 -0.09775171 -0.06421081 0.049165793 0.00016611203 0.1263777 0.15611209
0.10013251 0.12727642 -0.13909225 -0.10543143 0.036212023 0.11976281 0.13552722 0.036184624
0.057590716 -0.11407627 -0.059925888 0.007094846 0.0381396 -0.012060474 0.064184055 0.029990388
0.19032592 -0.022129713 -0.07417732 0.14951663 0.040717393 -0.1324493 0.052242536 0.11489434
0.0028471095 -0.0381166 -0.031359397 -0.13441655 0.09413031 0.14047492 -0.12976961 0.061121933
0.0589031 -0.03702181 -0.12293204 0.07853102 -0.07275495 0.07948592 0.02271281 0.060956128
-0.010228372 0.055520654 0.047384605 -0.0007639897 0.118772455 0.040866096 0.22628824 -0.16599794
-0.11250405 -0.14152765 -0.015746154 -0.2224305 0.033329424 -0.03831492 -0.042274017 -0.15816808
00000000: 231d 0dbc 0e65 303d 5e7e aabc 1898 6cbb
00000010: 5956 2e3d eecb 2a3d 1093 77bd b795 87bd
00000020: a443 973d 7369 033d 782c 96bd 96a7 94bd
00000030: 3065 f7bd 5a8c 633d c9ed 29bd 5c17 513d
00000040: 00f3 b13c ef70 423d 69d0 27bd 9d12 d83c
00000050: 5736 2fbe ab07 44bd 1dcf e53c 0570 653d
00000060: 0dee 243d b2b7 703d 3229 dd3c 45bd 0bbe
00000070: 1f1f 333d ca6d 293d 6bfc 3ebd 8245 c03c
00000080: 54f6 e23c 51e7 b4bb 4740 193d eac7 ce3a
00000090: ce3f a63d a608 c33d ef34 e1ba fb36 a6bd
000000a0: 80fc 90bd 3d80 993d 7b5d 043d 927e a13d
000000b0: 7bad 14bd fd4b 973b d458 323d 58af 16bd
000000c0: b344 1bbe 0d9a cfbc fc0a 41bd 789b 7c3d
000000d0: a19f 1b3d 420a dcbc 12cc eebc 2e7f 103d
000000e0: 8f31 2cbd 8cfd 6f3d 6254 5fbc 44db c4bd
000000f0: f41a 7c3d 7386 cfbd eddf 583d 5d89 98bd
00000100: fddb e4bd 4969 e1bd 1e3d 1e3c afe7 753d
00000110: 0e49 753d 34a8 8d3d ee32 a7bd 4dbc 023d
00000120: 31f9 d7bd 02ff cbbd d41d 76bd 9c8c 71bd
00000130: 5a59 4fbd d8d8 153d 7bd0 7bbd 7b93 6fbb
00000140: 4648 2bbd 519e cabd 9098 e3bd b043 c5bd
00000150: 70da 90bc 862f ad3d 12cb 04bd 56ee 00be
00000160: 9a89 18bd a845 d1bb aa0e 933d e541 9d3d
00000170: 897c 8e3d 5920 09bd 8db2 d13c 28c1 bc3c
00000180: 3c61 c1bc e9ee 2abb 0417 a2bd 7f55 c63d
00000190: 15b3 dbbd 9c34 583d 253d 223d 6c26 093d
000001a0: 98c4 b03c 3627 b4bd 1c72 733c 50f7 56bc
000001b0: b610 3bbd 1f9a efbd f382 163d 5c1f 853d
000001c0: d044 13bd 4ac7 1abd edfb 323d 29a1 f33c
000001d0: d118 f1bc c46f 8dbd d09e 4b3d 13f4 cdbc
000001e0: 1e2e 64bd 5f7f 153d cc5c f1bd f143 e9bc
000001f0: 2781 ddbd 54b1 00bd 367d ad3d 720a a6bd
00000200: 67d6 f4bd e34b abbd 48c4 033e e7c9 a33d
00000210: a28e f53a bdcf 863d ea3a 143e aed5 793c
00000220: c519 103d d6d6 14bd cc24 31be 2f1b 3dbd
00000230: c36a de3d 93ff 51be 8f3f 33bd ee9c 693e
00000240: e46f 133c cbeb 1a3e 9792 a0bc a6f4 2b3d
00000250: 8325 b13d 9cb9 6dbc 4476 0d3e edfe dbbd
00000260: ede2 043e a118 8a3d 502a d43d 0383 b03b
00000270: 7783 2a3c 338b 703d ad4d 623d 5624 17be
00000280: 2e14 2a3e 35f6 7abd 0bb0 153e 9ca7 1fbe
00000290: b7ce 953d 8212 fb3c d5f5 243d c0ea 053e
000002a0: 3415 1abe 754a 96bd ef90 58bb 9ef1 c2bd
000002b0: 4569 953d e5c4 a33d 595d 193b 4cbe 81bd
000002c0: 56cb ccbd 2bc4 20bb ac97 f5bd 648f 2b3e
000002d0: c2c1 d4bb 0212 02bd e556 99bd f1ca 13be
000002e0: fe83 4e3d cc38 47bc f2c8 463e a593 e2bd
000002f0: e517 e7bd a33f 953d fabe 173d 0a5c c33d
00000300: f388 05bd 9106 393e 0c32 c8bd f580 83bd
00000310: 1262 493d 5c2e 2e39 2869 013e d9db 1f3e
00000320: 4612 cd3d c054 023e 336e 0ebe 6fec d7bd
00000330: 0f53 143d 3446 f53d a6c7 0a3e 5436 143d
00000340: 3ee4 6b3d d2a0 e9bd d974 75bd e27b e83b
00000350: 4538 1c3d 4b99 45bc ee72 833d 67ae f53c
00000360: cce4 423e 5f49 b5bc 47ea 97bd e31a 193e
00000370: 48c7 263d caa0 07be 45fc 553d b94d eb3d
00000380: 9296 3a3b 2720 1cbd b672 00bd 7ea4 09be
00000390: 64c7 c03d a8d8 0f3e 53e2 04be fe5a 7a3d
000003a0: 6144 713d 2ea4 17bd cbc3 fbbd dfd4 a03d
000003b0: 8c00 95bd 84c9 a23d 3710 ba3c 22ad 793d
000003c0: e794 27bc a069 633d 5c16 423d 7b46 48ba
000003d0: f93e f33d 3563 273d 1bb8 673e 5dfb 29be
000003e0: 8668 e6bd a0ec 10be 14fe 80bc d2c4 63be
000003f0: 6f84 083d 1bf0 1cbd 8527 2dbd d0f6 21be

fc3.bias f4 [4]
-0.09260764 -0.07843474 0.07337636 0.04347199
00000000: 13a9 bdbd 65a2 a0bd 5846 963d af0f 323d
